rnn_training/20260104_224745_GRU128_MAE_2trialsheldout/best_model.pth (torch, 521205 bytes, 10 tensors)

initial_state_projection.weight f4 [128, 110]
00000000: 0de5 ae3c b917 5e3c 9aa6 18bb 0b6e 133e
00000010: 462c f13c 943a 81bd a605 89bd a735 6b3e
00000020: 7a3e c8bd cfbb 9b3d f3f9 9f3d b505 56bd
00000030: 120e 183e 5135 a8bc ba78 05bb 2222 84bc
00000040: 8194 9f3d d0c8 b5bc 680b 1cbe 1101 a53d
00000050: 49a7 3c3d 7239 cabd 309d e73a 391d 933d
00000060: c501 44bd 7905 f9bb 7699 e23c 1be3 523d
00000070: 3d80 c73d 1420 fb3c b036 af3b 7539 cbbd
00000080: a740 ed3d 3aed 3e3e 849b 5b3c 5df1 3cbd
00000090: f719 443c 8a30 9a3d 26d5 d43c ee09 9c3c
000000a0: 6602 fb3d 0982 90bd 5bda b7bc 112c e03d
000000b0: 96bc 9d3d 4d58 0c3e e032 133e 03b5 753d
000000c0: 35a2 153d 6c82 a1bc 68ca c6bd 6ff5 69bb
000000d0: c534 b2bd 20fc 73bd 23a4 46bd 889b 84bc
000000e0: 952a 8cbc b4a2 27bd 4505 c5bd 58b3 06be
000000f0: 9dba f73c 65dc 0dbe e699 7d3d aa5d 19be
00000100: 56b7 ddbd b50c ebbd 4250 c93c f2cd b2bc
00000110: 427f 893c 4369 993d cf71 0d3e 0060 15bb
00000120: f8ee c0bc 935a 04bc d8af 5cbc d94d fabb
00000130: 8c75 8dbd 4bcc 1abe 3ade c43d 4238 303d
00000140: 3d50 4f3e 0f61 ee3d cc0e 0c3d 4153 463e
00000150: e494 b43d 09d6 7c3d 6109 71bc 6e0d cd3d
00000160: aca9 843d f1a5 053d 402b 8bbd 75ec 0f3d
00000170: bb1d 90bc 4885 94bd 00ad 1cbd 5204 aabd
00000180: da70 bbbd 7d83 02be 868f 30bd 1232 64bd
00000190: 1d39 84bd 2c3f 12be a7ce fdbd 758c e5bd
000001a0: 4bf8 9cbd 760b edbd 3cb9 e1bd 85e8 0a3d
000001b0: b6dc 1dbd 1bd2 f4bd 58a4 c0bc 936a e5bd
000001c0: 6064 84bd 62ae 123c c9ae 06be 0bff e5bd
000001d0: bf6e 823c 98f5 aebe e6d7 55bd 757f d7bd
000001e0: 4006 1dbd 2fd1 adbd 4155 b33d 38a0 82bd
000001f0: ff08 843d 6739 e83c cdd4 903d 9230 8a3c
00000200: 0f1e 11be 9fb9 1dbe 5736 40bd b623 7e3d
00000210: 7a62 003d 713b e7bd 836c 8d3d 0c34 db3d
00000220: fe51 93bd 3415 143e 7a0a afbb 1dbb 003d
00000230: 55c1 013e ddf8 4bbe 3a6b acbd dab7 073e
00000240: f720 d0bd 08bc f7bc 2ad2 f0bc 6fdf 7bbd
00000250: d587 03bd 7f1a 863d 217f f33b cb74 33bd
00000260: f101 2fbd f662 39bd ca4a ff3d 6a65 d2bd
00000270: d3c4 c03d f12b 4dbd 886b 84bd 931b f2bc
00000280: c1f2 d73d 3743 f3bd 0048 bdbd d4df e63d
00000290: 01e8 ba3d 1e44 153d bb3d 423c f460 4ebd
000002a0: 7d1a d8bd 97a9 05be f146 263c 37ec b5bd
000002b0: 5e6c afbd b77e 79bd e849 babd 8195 b63d
000002c0: f739 9abd 8b4d 18be 1066 273e 7c03 f23c
000002d0: 3da5 b3bd 60af 18be d54d ff3c f68a 793e
000002e0: f293 aabd 5898 ba3d ecc3 89bd fb4e c5bd
000002f0: 896d 15bd f9b5 413d d52e b03c cdc1 80bd
00000300: 28b9 febc 05d6 313e c3b7 70bd 8543 9e3d
00000310: e2cb 3f3d f886 fcbc 666d 99bd bb87 e73c
00000320: 10f5 02be fe7f 223e fc42 a5bd 3207 81bd
00000330: 4879 69bc ebd5 d3bc 0467 e23d b8bc 86bd
00000340: 1842 373d 82f8 333e a754 4dbe 37dd 09bd
00000350: 8484 dfbd fe4d 07be 6d72 c5bd d1b5 7c3d
00000360: 0266 7c3d 9f2d 2e3e 9011 1e3d f707 b2be
00000370: 0044 2bbd d2e1 053e 771d 173d 8805 923d
00000380: e8d2 91bd e680 4ebd 1bba 13bd 0585 04bd
00000390: e04b 063d a4d2 af3d bafe 803c 6358 abbb
000003a0: 2406 613c a757 78bc 79b1 e13d d84f e1bd
000003b0: 0eae 5e3d fcd4 85bd faa5 973d 2608 93bd
000003c0: fcae b93d 3b1c 7f3d 8459 c43c c634 0dbe
000003d0: d719 40bd 3093 aa3d 5cfa 203d b69a 82bd
000003e0: 9623 48bd 7ad3 173d b293 db3c 848e 063c
000003f0: c3f8 9cbd 7790 ed3d 8ffc ef3c f9d7 1fbe
0.021349454 0.013555461 -0.0023292662 0.14397447 0.029440057 -0.06310001 -0.066905305 0.22969685
-0.097775415 0.07604181 0.07811346 -0.052251536 0.14849117 -0.020533236 -0.0020366148 -0.016129557
0.07791997 -0.022190481 -0.15238726 0.08056844 0.046057973 -0.09874238 0.0017670747 0.07183308
-0.04785325 -0.0075995293 0.027661067 0.051486116 0.097412564 0.030654944 0.0053470954 -0.099230684
0.11584597 0.18645182 0.013403777 -0.04612862 0.011969081 0.07528789 0.025980543 0.019047704
0.12256317 -0.07056052 -0.022442987 0.10945905 0.077019855 0.13705559 0.14374876 0.05998708
0.036531646 -0.01971551 -0.09706575 -0.0035699268 -0.08701471 -0.059566617 -0.048496377 -0.016187444
-0.017110148 -0.04092665 -0.09620146 -0.13154352 0.030240351 -0.13853605 0.061914347 -0.14977136
-0.10825984 -0.11477033 0.024574403 -0.021826718 0.016784314 0.0749078 0.13812946 -0.0022792816
-0.02355145 -0.008078235 -0.013469659 -0.0076386747 -0.06907186 -0.15116994 0.09612699 0.0430224
0.20245452 0.11639606 0.0341938 0.19367696 0.08817461 0.061727557 -0.014711709 0.10012327
0.06477675 0.032628957 -0.06795359 0.035137612 -0.017592302 -0.07251984 -0.038250923 -0.08301605
-0.09152384 -0.12745471 -0.043105625 -0.055711813 -0.06456206 -0.1428191 -0.123929314 -0.11208431
-0.076645456 -0.115744516 -0.11021659 0.033913154 -0.038540564 -0.11954137 -0.023515865 -0.11201968
-0.064644575 0.008952709 -0.13152613 -0.11230286 0.015921948 -0.34171748 -0.05220785 -0.105223574
-0.03833604 -0.08487164 0.08756495 -0.063782156 0.06447028 0.028347684 0.070718385 0.016868863
-0.14171623 -0.1540284 -0.046926823 0.062045775 0.031343915 -0.112906344 0.069054626 0.107032865
-0.07193373 0.14461213 -0.005341825 0.031428445 0.12671407 -0.19919153 -0.08418889 0.13253728
-0.101625375 -0.030241027 -0.029397089 -0.06149238 -0.03211196 0.065480225 0.0074309264 -0.043812554
-0.04272646 -0.045260392 0.12465437 -0.102732494 0.09412541 -0.050090734 -0.064658225 -0.029554164
0.105443485 -0.118780546 -0.092422485 0.112731606 0.091262825 0.036441915 0.011855538 -0.05038543
-0.10551927 -0.13052975 0.01014875 -0.08882945 -0.08565591 -0.06091186 -0.09096128 0.08915234
-0.07530587 -0.1487333 0.16347528 0.029542677 -0.08771751 -0.1491065 0.031165043 0.24369416
-0.083289996 0.091110885 -0.06726822 -0.09634205 -0.036481414 0.047292683 0.021506706 -0.062869646
-0.031094149 0.17366798 -0.058769 0.07727722 0.046825297 -0.030826077 -0.07491569 0.028262964
-0.12788796 0.15869138 -0.08069417 -0.063002005 -0.014250107 -0.02585884 0.11054805 -0.06578964
0.044740766 0.17575267 -0.20051824 -0.033658233 -0.10913947 -0.13213345 -0.096409656 0.06169683
0.06162072 0.1700959 0.038590968 -0.34771702 -0.041812897 0.13074425 0.036893334 0.07129961
-0.07120305 -0.050415896 -0.036066156 -0.03235342 0.032787204 0.085850984 0.015746463 -0.0052290424
0.013734374 -0.015157617 0.11020178 -0.11001557 0.05436521 -0.06534764 0.074047044 -0.071792886
0.09066579 0.062282782 0.023968466 -0.13789663 -0.046899643 0.08328855 0.03930126 -0.06377165
-0.048862062 0.037066914 0.026803825 0.008212689 -0.07664635 0.1159982 0.029295234 -0.15609731

initial_state_projection.bias f4 [128]
00000000: 9bb4 22bd d346 6cbe ff92 87be 450b 123e
00000010: 26c3 033e 61a3 20be 0544 6fbe 97b2 06be
00000020: 2cbb 403d 4130 923e 6b9c 1dbe ce32 0abe
00000030: 116c 3e3e 8e76 0cbe 0b23 7dbd 4675 283e
00000040: 0edc a1bc 719a 1f3e 397c 673e 3c7b 8dbe
00000050: 9adb 1abe 5253 9dbd e1a2 24be 9e21 c0be
00000060: abd9 7a3d 95c5 c23e 1754 b5bd a99f 8c3e
00000070: 73df a33e a3e2 2ebd b943 bbbd b997 2fbe
00000080: 1658 f93c 7b77 0fbe 3865 a83e b173 363e
00000090: 9fed aabc 765a b43d f859 78be afc0 72bd
000000a0: 1f0f fabd 7da0 18be 22de fc3d a2c5 0bbe
000000b0: ee99 f3be 3fb4 383d d3d0 7abe 1238 123e
000000c0: 61da 5c3c c068 a4bc 71fa 00be a049 183e
000000d0: a5de 1ebd acf2 90be 57f9 1c3e 96f1 5b3c
000000e0: 4e6e abbc 23d3 1f3d 848c d1be b7aa 863e
000000f0: 0274 82be 21e6 03bc 9033 68be 0a6a 33be
00000100: e51d bfbe 2b62 ea3c d17a 983c fe7c 193e
00000110: f0f2 0f3d 8fe5 aabd 17f0 8ebd 96ea bf3d
00000120: e4eb 6bbe 5c24 873e 5ab5 4bbe 31fc 5f3e
00000130: 1b34 d53e 8c44 a0be 4662 2f3e 80e9 91bd
00000140: 6c62 b2bd b2e1 763e 271c be3d 3319 88be
00000150: 2363 ebbd 93f1 9e3d 96c0 5cbd 4aa5 bebe
00000160: 810d 94be 5b42 2f3e 3f9b bbbd b5f8 37be
00000170: 5e23 413e 1007 0e3e 9f0d 00be a36a acbd
00000180: 05f4 efbc ee3f 903c 4420 52be 140c 20be
00000190: d09f 963e 4d81 08be a34b 163e 9c34 8d3e
000001a0: c878 1a3e 758e 3ebe a48b 0a3f 29c8 f3bc
000001b0: a228 cf3d f9d1 963e 4015 10be 2228 8c3e
000001c0: 55b6 74be 2911 883e a2b3 523e b97a 2c3e
000001d0: 542d 4b3e 7372 b53d f9cf 97be a89e 19be
000001e0: 05fa 71be 3b1e 8fbc 9e59 d3be dfaf 163e
000001f0: 3221 143e 6d90 1db9 b62f 333d eca9 ba3c
-0.03972302 -0.23073892 -0.26479337 0.14262111 0.12867412 -0.15687324 -0.23365791 -0.13154064
0.0470535 0.2855244 -0.153917 -0.13495943 0.18595912 -0.137171 -0.061800998 0.16450986
-0.01975825 0.15586258 0.22605981 -0.27633083 -0.15122834 -0.07681908 -0.16077758 -0.37525648
0.06124274 0.38041368 -0.088539295 0.2746556 0.32006416 -0.042696606 -0.091437764 -0.17147721
0.03043751 -0.14010422 0.32889724 0.1781757 -0.02086526 0.088063166 -0.2425307 -0.05926579
-0.12209915 -0.14904971 0.12347056 -0.1364961 -0.47578377 0.04509377 -0.24493723 0.14279202
0.0134798 -0.02006948 -0.12595536 0.14871836 -0.03878655 -0.28310144 0.1532949 0.013424298
-0.02092662 0.039019715 -0.40927517 0.2630212 -0.25479132 -0.0080504725 -0.2267592 -0.1752092
-0.37327495 0.028611263 0.01861325 0.14989087 0.035143793 -0.08344566 -0.06979387 0.093709156
-0.23039204 0.26394928 -0.19893399 0.21873547 0.41641316 -0.31302297 0.17127332 -0.07124615
-0.08710179 0.24109533 0.092827134 -0.26581725 -0.11493518 0.077609204 -0.0538946 -0.3723548
-0.28916553 0.17115156 -0.0916047 -0.17965968 0.18861148 0.13869882 -0.12505196 -0.08418777
-0.029291162 0.017608609 -0.20520121 -0.15629607 0.29418802 -0.13330574 0.1467729 0.275792
0.15085137 -0.1860903 0.54119325 -0.02975853 0.10115172 0.2945707 -0.14070606 0.2737437
-0.23897679 0.26575592 0.20576337 0.1684369 0.1984151 0.0885972 -0.29650858 -0.15001929
-0.23630531 -0.01747047 -0.4127931 0.14715527 0.14465788 -0.0001502649 0.043746673 0.022786103

rnn.weight_ih_l0 f4 [384, 10]
00000000: e88f 81bd 3ecb 3e3d 2d2f 3f3d b013 cd3c
00000010: 2ff4 d93c 2649 45bd fb8c 413d af60 4c3c
00000020: 8f84 a33d 2ac2 19bc 39fc 21bd 539b 8fbd
00000030: e066 8dbb 3764 833c 0c9b 2dbd fa29 d03c
00000040: 71b7 5e3d b2d5 86bd f888 6f3d a04b 34bd
00000050: bf2b 9cbc 3d67 a93d 4897 003d 9078 e63c
00000060: 87ee 2cbd 3360 63bc 7310 40bd b41e a7bc
00000070: 1baa cdbc 37b8 d9bc b5b6 aabd 97cb 4dbc
00000080: 1d78 003d 8f77 5f3d e5a1 973d d6f1 b93c
00000090: ba3d 1dbd 6aa8 ecbc b8b1 25bd 9931 ed3c
000000a0: 89ae bdbc 853f 40ba 5be8 883c 7993 873c
000000b0: 1131 88bb 7a8a 3fbd 1150 83bc 357a 95bd
000000c0: c7b6 aa3c 43bc 72bd f009 8d3d 0d02 063d
000000d0: e1ac 0abc d89b 06bb fd34 423d 30fd e63c
000000e0: 7007 b7bd a46e 32bd 3ab5 b23d ad7b 9839
000000f0: a532 3ebd 16bf 53bd bba7 5abd 7653 31bd
00000100: 965d 3dbd 0660 85bc 36e2 063d e3b1 993d
00000110: 3a03 d9bc 5703 6d3d c559 823d 1b91 023d
00000120: 64a3 c43d 9f66 343d 60a2 5f3d 6183 15bd
00000130: ae88 b83d 931d 2c3d 6c44 ccbc d05f 8bbd
00000140: b7c8 853d 38fa 0dbd ae3d 453d cc61 943d
00000150: 7d94 f8bc f04a 093d ccb1 ca3c 4638 c4bd
00000160: 4f78 47bc 0638 9d3c 4631 91bd 8643 acbc
00000170: 1d2b 313d 1094 6dbc 3740 163d 145d 8dbd
00000180: be8c b2bc 7f5b a9bc ea14 32bd c28b 00bc
00000190: 7cf6 ea3c 8c49 803d da6f be3d f66d 153c
000001a0: aec3 edbc 7629 a5bc 7088 a63d 45dd a53d
000001b0: 9b3c 7fbc 3081 873d 5926 3fbd 60d3 793d
000001c0: 30b2 973d 800c a63c 743f 87bc 9bd0 dfbc
000001d0: 21c3 58bd c9ce f7bb c114 3b3b 1660 6bbd
000001e0: 076b f43c b5c0 fdbc 82bf 3fbd f7aa b73c
000001f0: 4042 6b3c 19d4 9ebc cf70 5abd ea3a debc
00000200: e2c4 a03d 2d18 963d b3fc ab3d 53ba fbbc
00000210: dead 813c 5fd4 533d a549 e03d afe3 deb9
00000220: 9a02 813c be47 6cbd 3950 b33c c2f1 3c3c
00000230: 5b41 633d a1fe 1fbc f627 86bd a914 9fbc
00000240: 1601 9f3d 8df7 6cbd f2c7 9b3d 73e6 49bd
00000250: b566 9abc d4c8 74bd 1322 87bd 2f4b cf38
00000260: 31c9 46bd c5c2 a13d 674c 0fbb 8c71 813d
00000270: 64b2 913d 0a10 2d3d a6e6 f0bb 4fc5 82bc
00000280: 8a6c 1c3d 9fc3 3cbc 0eec 5ebd 4d1d 8bbd
00000290: 06e6 ac3c f54c 11bd 3959 33bd f130 0c3d
000002a0: b4da 643d 4de7 c8bc 81e3 0e3d 8134 0c3d
000002b0: 3737 ba3c 659e f8bb 2aaf ba3c d12a a53b
000002c0: c474 39bb 0451 f73c 005d 91bb 20b9 41bd
000002d0: c4da 85bd 03f4 263c 0860 a8bc 3866 b03d
000002e0: 3ade a03d 06ec e73b d0a8 6bbd cb17 c03c
000002f0: bfc7 84bd 81b8 dcbc 7351 02bd 0c26 293d
00000300: d8fa 7bbd 4bb1 05bd da0a aa3b 16f1 673c
00000310: 837f 9a3d 3b09 9f3d 0ce6 44bd b2f0 9ebd
00000320: 3452 833c 1e0e d5bc 5925 503d 47ea 513c
00000330: 13cd 4fbd 864c 433c d461 b1b9 569a 88ba
00000340: b200 4c3b cb6f 17bd 58ad b93c 0761 36bd
00000350: 3753 403d d7e4 4bbd f4b1 9a3d d071 91bd
00000360: 2a13 e6bc 7d96 5b3d c1dc 63bd 3c20 41bd
00000370: 22f7 9a3b 02de 443d 8710 ac3d 011a a93d
00000380: 5ffb b4bc e0cf 65bd ded8 5e3d e89f d9bc
00000390: 0be7 993c 9bb1 42bd dad0 0bbd e9ef 29bc
000003a0: c152 bbbc ece9 b23d b812 95bc 4333 e03c
000003b0: 3e71 64bd 9ac3 ae3c 0749 90bd 898a 0f3d
000003c0: 897a 95bd c2b9 813c d8f9 8b3d 471a 463d
000003d0: 19d3 b9bd 6ad2 52bd d487 18bc 4e5c 843d
000003e0: 080f 803d d676 abbc cde2 0ebd a1fe efbc
000003f0: 2487 a93d fd95 af3c db32 673d 9bc4 0ebb
-0.06326276 0.046580546 0.04667585 0.025033802 0.026605694 -0.048165463 0.04725359 0.012474223
0.07984268 -0.009384671 -0.03954718 -0.070120476 -0.004315242 0.016038997 -0.042384192 0.025410641
0.054374162 -0.06583728 0.058480233 -0.044017434 -0.019063829 0.08271644 0.031394273 0.02813366
-0.042219665 -0.013877916 -0.046890687 -0.020400383 -0.025105527 -0.026577098 -0.0833563 -0.012560747
0.03136455 0.05455738 0.07403926 0.022698324 -0.038388945 -0.0288889 -0.04045269 0.028954314
-0.023154514 -0.0007333684 0.016712358 0.016549813 -0.00415624 -0.04676292 -0.01602939 -0.072987
0.020839108 -0.05926157 0.06886661 0.0327168 -0.008464069 -0.0020539667 0.047413815 0.028196901
-0.089369655 -0.043562546 0.087259725 0.00029083845 -0.046435017 -0.051695906 -0.053382616 -0.043292485
-0.04623183 -0.01628114 0.032930575 0.07504632 -0.026490796 0.057864513 0.063647784 0.031876665
0.09601477 0.04404318 0.054598212 -0.036502246 0.090104446 0.04202039 -0.02493497 -0.06805384
0.06532424 -0.034662455 0.048154525 0.07245216 -0.030344242 0.03351873 0.024742983 -0.09581046
-0.01217468 0.019191753 -0.07089476 -0.021028291 0.043254007 -0.014500633 0.036682334 -0.06902519
-0.021795627 -0.020673512 -0.043476976 -0.007845821 0.028681986 0.06264028 0.09298678 0.009120455
-0.029023971 -0.020161372 0.08131492 0.080988444 -0.015578414 0.066164374 -0.04666743 0.0609926
0.074070334 0.020269632 -0.016509749 -0.02732115 -0.052920464 -0.0075624925 0.0028546306 -0.05746468
0.02983619 -0.030975679 -0.046813495 0.02242039 0.014359057 -0.019388245 -0.05333024 -0.027127702
0.078500524 0.0732883 0.08397808 -0.030728495 0.015829977 0.051716205 0.109515466 -0.00042512777
0.01574831 -0.057685606 0.02188884 0.011532249 0.05548225 -0.009765298 -0.06550591 -0.019419031
0.07763879 -0.05785327 0.07606496 -0.04929204 -0.018847803 -0.059761837 -0.06598296 9.884533e-05
-0.048531715 0.078984775 -0.0021865608 0.063204855 0.071141034 0.042251624 -0.007351714 -0.015963225
0.03818945 -0.011521249 -0.054424338 -0.06792698 0.021105777 -0.035473783 -0.04378626 0.03422636
0.055872634 -0.024524355 0.034884933 0.03422976 0.022731407 -0.0075872415 0.022788603 0.0050405045
-0.0028298358 0.030189998 -0.0044361353 -0.04729569 -0.06535867 0.010190013 -0.020553604 0.08613247
0.07854886 0.0070776967 -0.05753404 0.023448845 -0.06483411 -0.026943447 -0.031815957 0.04129605
-0.06151852 -0.032639783 0.005189282 0.0141566 0.07543852 0.077654324 -0.048070952 -0.07760753
0.016030408 -0.026007708 0.050816868 0.012812204 -0.050732683 0.0119201 -0.00033832958 -0.0010421972
0.0031128344 -0.03697185 0.022665665 -0.044526126 0.04695436 -0.049778786 0.07553473 -0.07101786
-0.02808531 0.053610314 -0.05563045 -0.04714988 0.0047291676 0.048063286 0.0840159 0.08256913
-0.02209252 -0.05610645 0.05440604 -0.026565507 0.018786928 -0.04753266 -0.034134723 -0.01037214
-0.022866609 0.08736023 -0.018197402 0.027368193 -0.05577206 0.021333504 -0.07045179 0.035044227
-0.07298762 0.015835647 0.06834763 0.048364904 -0.09073467 -0.051470198 -0.009309728 0.06462918
0.06252867 -0.020930689 -0.034884263 -0.029296221 0.08277729 0.021433825 0.056444984 -0.0021784666

rnn.weight_hh_l0 f4 [384, 128]
00000000: da1a 5a3c 2d05 ff3b bff4 253d 78cf 013d
00000010: a879 f33d 1b37 e83c 590c 323d 6da8 babd
00000020: 4e8f 9cbd d6c2 8dbd 4f03 0cbd abdd 833d
00000030: 43c5 24bd 4bdf 91bd 825f abbb 9445 9cbc
00000040: 69f1 44bd 998b 46bd 27f7 a73d 956b 83bd
00000050: 6d6a 07bd e8f2 753d 129d 043c d272 2f3d
00000060: a8ce 77bd a1b8 a33d 325d 85bd f84b 7abd
00000070: 8678 4abd 6846 083b 0991 8bbc 1a75 453d
00000080: 5e0a 6a3b 2802 52bc 9eae 8b3d d010 c63d
00000090: d567 8c3d 7bd1 953d 3491 703c e9e6 bc3b
000000a0: 2dbf a3bd bf9b 48bd 667d 5f3d 4fe1 c8bd
000000b0: 0c69 b5bd 7bf0 f93c f4eb 18bd 3b59 19bd
000000c0: 2545 e5bc 02cc c53c a48a d03c 05f7 d9bc
000000d0: 8a70 8abd 471f 783d 0434 9abd 491b 9fbd
000000e0: cf4a 62bd 81b0 b53b 5b35 60bd 5f55 63bd
000000f0: e19f 18bd 35e3 1f3a 182a 67bd a857 5b3c
00000100: 311b 7e3d ae56 8bbc 1e44 b03d 3e56 ef3c
00000110: 919e 21bd 558a a03d 13d4 953d 6999 c63d
00000120: bded acbd 458a 25bd f57f 62bd b954 76bd
00000130: 5609 8bbd b0c7 b4bb 0d0b 483d f8b8 6abd
00000140: 2125 5bbd df66 d33d 86df 603d 9f56 8d3d
00000150: 1bc4 8f3d f0e1 183d a56f 88bd c986 a03c
00000160: f81a 40bd cc59 a7bc f262 9fbd 1c98 a4bc
00000170: f0d3 69bd 52ca b73d 6db6 bcbd 8cc5 893d
00000180: ab96 a8bd 2240 663c 9a2f 4fbd b420 993a
00000190: d28c 60bc 2222 7fbd 6457 86bd ccaa 16bc
000001a0: 4296 893d 4d05 03bd c4e8 033d c138 cb3c
000001b0: f9a4 183d 8170 85bd b1de 0dbd dd8c a2bd
000001c0: f3c8 873d 2f7a 763d f364 9d3d 50f1 daba
000001d0: 55dc 9a3d b7d0 773c 1caa 4cbd 7ccc b4ba
000001e0: dac7 38bd 3f54 383b c57c 99bd 016f b1bc
000001f0: 79cc 9d3d e298 763d a3c6 2ebd d6be b4bc
00000200: 2cd4 98bd 4347 3bbd a474 9f3c 2377 3d3d
00000210: 277a 093d 14a9 e7bc e2ca 8f39 9ad6 423d
00000220: 483b 5c3d a72e 5fbd 2264 633d a087 c1bd
00000230: a108 b73d 7f43 ac3d 69ed 2f3c b960 9cbd
00000240: b95c d23c 01bb 74bd c686 a6bd fc95 283d
00000250: dd9a 28bc b2b3 69bd 1ec3 2fbc cef4 7ebd
00000260: d977 6f3d 0047 a03d 3464 a3bd de3c a1ba
00000270: 207e aebb d416 4cbd e2d5 773d eb55 40bd
00000280: af56 b0bc 25c3 c83c f442 b3bc 2926 88bd
00000290: 0392 91bc 6a5d 2bbd bb0f 983d 507e 723d
000002a0: b872 0fbd 21d9 b43d 41fd d9bd 6ca1 a4bd
000002b0: 307d 9d3c 76fe 5b3d 1c9d 133d c0a2 263d
000002c0: 2995 6c3d 8e66 c0bc 0947 163d 8124 003d
000002d0: b65f edbc eda9 fdbc ad31 63bb 9480 1fbd
000002e0: 6506 903d 070b 453d a475 7a3d a5dc 273d
000002f0: e6c9 253d 69b1 723c a19e 9bbd 7867 343d
00000300: c414 7ebd 6054 2b3d 0fe6 6bbd 3255 833b
00000310: db3d 24bd 06a0 0f3c e484 3cbd 7faf 4e3d
00000320: 3553 783d f813 f03b a8b7 9ebd 4f9e 993d
00000330: 983b 4cbd cf29 4d3d b74a b6bc 8100 663d
00000340: 9ccc a4bc 241b d4bb 60d4 7f3b 2636 01bd
00000350: 236e 423d 2834 32bd 36a2 a33c 3cd7 cbbd
00000360: 27ed 183c 7b44 38bd 90f4 fd3b fc2c 983d
00000370: 7fd1 d6bb f92e ad3d e394 003d e180 153c
00000380: caed e93c c980 19bd e13f b43d e341 fc3d
00000390: 748c 3cbd 1e64 87bd c7de 6f3c 1faa 863c
000003a0: 0d71 babc 757b 543d 78c8 e33c 36cb 683d
000003b0: 085e 443d 7c72 79bb 4d48 0cbc bb02 a63a
000003c0: e4dd d93c 6646 76bd 2a91 f3bc 7625 043d
000003d0: 8e5f 023d 9695 a33d ec97 c0bd 6fe8 6fbc
000003e0: 6ca0 903b 922c b93d 41a9 bdbd e379 a1bc
000003f0: 7be8 9a3c c4c2 5abd 9f36 34bd 365b 8cbc
0.013312066 0.0077825994 0.04051661 0.031692 0.118884385 0.028346589 0.043468807 -0.09114156
-0.07644521 -0.06921928 -0.034182843 0.06438764 -0.040227186 -0.07122668 -0.0052298913 -0.019076146
-0.04808179 -0.048472974 0.082014374 -0.06417004 -0.03306048 0.060046107 0.008094089 0.04283411
-0.060499817 0.079941995 -0.06511916 -0.061107606 -0.049431346 0.0020793919 -0.017036932 0.04820738
0.0035711746 -0.012817897 0.06820415 0.096711755 0.06855742 0.07315346 0.014683057 0.0057648313
-0.07995448 -0.048976656 0.05456295 -0.09808599 -0.08857927 0.030510178 -0.037334397 -0.037438612
-0.027987072 0.02414513 0.025456734 -0.026607046 -0.067597464 0.060576703 -0.075294524 -0.07768876
-0.055247124 0.0055447225 -0.054738384 -0.055501338 -0.037261847 0.0006099225 -0.056436628 0.013387598
0.06203765 -0.017009106 0.08606742 0.029215928 -0.03945786 0.07838885 0.073158406 0.096972294
-0.084437825 -0.040415067 -0.05529781 -0.06013939 -0.0678889 -0.0055169687 0.048838664 -0.057305306
-0.053502206 0.103223555 0.05490067 0.06901287 0.07019826 0.037324846 -0.066619195 0.01959552
-0.04690072 -0.02042856 -0.07782544 -0.020092063 -0.057086885 0.089741364 -0.092144825 0.06727132
-0.08231863 0.014053376 -0.050582506 0.001168272 -0.013705449 -0.06228841 -0.06559637 -0.009195995
0.067181125 -0.031987477 0.032204404 0.024807336 0.037266705 -0.06515599 -0.034636203 -0.07937024
0.06630125 0.060175117 0.0768527 -0.0016703997 0.07561556 0.015125445 -0.049966916 -0.0013793851
-0.04511247 0.0028126386 -0.07494501 -0.021659376 0.07705016 0.060204394 -0.042669903 -0.022063654
-0.074623436 -0.045722257 0.019464798 0.046256196 0.03356376 -0.028278865 0.00027426245 0.04756794
0.053767473 -0.05448785 0.055515416 -0.094496965 0.08937193 0.08411311 0.010737755 -0.07635636
0.02567898 -0.059748653 -0.08131175 0.04115866 -0.0102908285 -0.057056136 -0.010727672 -0.062245183
0.058463905 0.07826042 -0.079780966 -0.0012301465 -0.005325094 -0.049826458 0.06050671 -0.046956938
-0.021525709 0.024507115 -0.021882512 -0.066479035 -0.01776982 -0.041837133 0.07424875 0.059202492
-0.035021514 0.088304766 -0.106440075 -0.08038601 0.019224733 0.05370947 0.036038503 0.040682554
0.057759438 -0.023486402 0.03668884 0.031284813 -0.028976303 -0.030964816 -0.003466706 -0.03894098
0.0703247 0.04810622 0.061147347 0.040981907 0.04047575 0.014812806 -0.075986154 0.044043988
-0.062031522 0.041828513 -0.057592448 0.004007959 -0.040098052 0.00876618 -0.046025172 0.050460335
0.060626227 0.007326599 -0.077498734 0.07500898 -0.04986152 0.0500887 -0.022252424 0.056152824
-0.020117097 -0.006472962 0.0039036497 -0.03154578 0.047468316 -0.04350677 0.01997481 -0.09953162
0.009333885 -0.044987183 0.0077501014 0.07430455 -0.0065557356 0.08456225 0.03139199 0.009124965
0.02855577 -0.037476335 0.088012464 0.123172544 -0.046032384 -0.06610893 0.014640517 0.016438542
-0.022758985 0.05187555 0.027805552 0.056834422 0.047941238 -0.0038062623 -0.00856216 0.0012665609
0.026595064 -0.06012573 -0.029732306 0.032262288 0.03182941 0.07987516 -0.09403977 -0.014642819
0.004413655 0.09041704 -0.09260798 -0.01971144 0.018909683 -0.0534084 -0.043997403 -0.017133337

rnn.bias_ih_l0 f4 [384]
00000000: 87d4 eb3d e657 7fbc 2971 a5bc b2b8 5d3d
00000010: ecb4 c33d 8913 c23d a67c 16bb 46d0 333d
00000020: 4dc0 523b 8f65 433d c3bf a63d 3d3d 933b
00000030: ce27 32bd d6bf 713d df1d b43d 5a39 623d
00000040: b821 813b c3a3 9f3d 2787 9a3d b935 b5bc
00000050: ad92 57bb 873b 013d 86c7 d2bb d381 303d
00000060: 4d27 9a3d fe2f d53d 9085 f83d bd4f 9a3d
00000070: 6370 2dbd 16b7 b13d 6344 09bd 6a1d 083e
00000080: a21d c7bc f944 283e 0725 c03c 8f6e a53d
00000090: 5b23 523d a329 6abd 602e d83d 8922 003e
000000a0: 0832 073e 1f0d 29bd 9f1f 973d 7b84 d23d
000000b0: 61a3 a83d b864 ac3d bdf4 36bd fede 0b3d
000000c0: 4562 f83d 2393 823d 9699 0d3b edfe d43d
000000d0: 8440 e83d 4e03 e53c 58df 3d3c 5240 2f3e
000000e0: 1fa9 75bc 1d7e 953c 1d91 0e3d 3f1d 22bc
000000f0: 9888 a3bc 8b67 803d 4025 5a3d 648a 153d
00000100: f5e0 78bd e6fe e93d b55c 153e 9d73 1d3d
00000110: f523 bd3c 506e d73d 2fba de3d 3734 673d
00000120: f75a 703d e008 053d 7ba9 d53d aee7 4d3c
00000130: 5e08 fb3d 053e b8bc e563 c8bd f93e 903d
00000140: 0bf1 913d 29e1 46bc ea1b 013e b33c ab3c
00000150: 6fda 5a3d 0673 ec3d b35c 823d 27c2 92bc
00000160: ecea d83c b2f5 9ebc 8203 593d 1663 043e
00000170: 94a9 123c 5ce2 55bd fbc0 ed3d d2d0 bd3d
00000180: 5389 3f3e bf24 e83d 2271 1bbd 0da7 413d
00000190: 4992 1bbd d93d b03d aaf3 813c 219f 843d
000001a0: a5cc b13d bfe1 133d ab1e 2dbd 4f4d 703d
000001b0: 155d 963c 30b0 da3d 57dd 433d 5134 d63d
000001c0: 0855 803b 1af3 26b9 84bd 7e3d 1160 c9bc
000001d0: c9f6 0f3c 2d98 35bd 9b9a 9ebd ddda 333d
000001e0: 0fe0 9c3c 8dbd 403e 70f1 14bd fb70 193e
000001f0: 4952 9fbd b2b9 1e3d 20d0 a13d b723 2ebd
00000200: 102b 9d3e 18ee 923e 8601 a53e f039 9f3e
00000210: 782d a63e 623d 2d3e 79ef bb3e 08be ef3e
00000220: 59f3 513e 3da0 af3e 19d1 bc3e 2a50 bf3e
00000230: d506 6d3e 2abf ce3d b71a 923e 2bda b33e
00000240: 77fb a33e 9d6f 9f3e fd9d 923e f05d 4e3e
00000250: 4dd8 a93e 8d97 733e 8134 853e ff52 7d3e
00000260: 0dd7 893e 5686 223e ed5e c33e de31 e73e
00000270: efd3 723e e318 953e e099 ec3d 40ff db3e
00000280: 607c 023e 8847 df3e 9b8f 3e3e 7c23 603e
00000290: 7269 f93e 2c52 e33d ebb9 363e 9367 803e
000002a0: 203b 063e fb8c ce3c 78c1 613e 2caf 5f3e
000002b0: 30f1 c23e 2833 003f cc48 243e dd0e 5c3d
000002c0: d201 173f cc71 903e eafc 9b3d 6b33 7d3e
000002d0: 033a 393e c6d2 eb3e 49d9 803e 98aa 323f
000002e0: 3fe1 9a3e 9b7c 563e 5fc3 e83e 3f38 663e
000002f0: b41b 003b 1e4a 153e b33a 043f 25ac fb3d
00000300: 5823 af3e 2317 0a3d 0b00 f73d 6cbb 023e
00000310: 339d 4f3e 9212 623e e793 4e3e 9919 953e
00000320: 4ccd 1d3e 27de 3c3d 749d 6d3e 22e5 6a3e
00000330: 28ef ed3e 7eb0 ac3e 9989 db3d de13 f93e
00000340: 6862 8c3e c638 4a3e 1b71 af3e 04c2 c03e
00000350: 9f63 fb3d b1aa 313e e6ff 1f3e 85ea a33e
00000360: fa17 563e 419e 893d dec5 3b3e 0a6d 413e
00000370: 6911 813e 7161 323e f525 353e 3b8b 823e
00000380: d6b7 fc3e 63c6 083e 4347 af3d f962 103f
00000390: c310 cd3d dbc7 123e b474 013f 1139 6f3e
000003a0: fe23 1c3f a8b9 bd3e 25a5 953e e926 8b3e
000003b0: 9c8f 343e 7a6c 583e 5846 943e e7e2 7a3e
000003c0: f1fd 453e fce4 5a3e 1862 953e e01e 063e
000003d0: d509 1c3e 66c4 9c3e 8838 393e 722e b13e
000003e0: a142 c33e 5776 473e f92c 0f3e 9119 f23e
000003f0: f954 d93d e30e e03d 7e0f c53d 1690 b63b
0.11515146 -0.015584921 -0.02019556 0.054131217 0.095559925 0.09476382 -0.002296248 0.043899797
0.0032158077 0.047704276 0.081420444 0.004493384 -0.043494992 0.05902084 0.0879476 0.055230476
0.003940787 0.07794907 0.075453095 -0.022120344 -0.0032893822 0.03155091 -0.0064324765 0.04309256
0.07527027 0.104095444 0.1213485 0.0753474 -0.04234351 0.08677499 -0.033512484 0.1329247
-0.024306122 0.16432561 0.023455156 0.08077728 0.05130325 -0.057168614 0.1055572 0.12513174
0.13202679 -0.04127228 0.07379078 0.10279175 0.08234287 0.08417648 -0.044666994 0.03414821
0.121281184 0.0637572 0.0021606437 0.10400186 0.113404304 0.027955677 0.011588894 0.1711438
-0.014993935 0.018248612 0.03480636 -0.009894668 -0.019962594 0.06269749 0.05325818 0.036508933
-0.06076141 0.11425571 0.14586146 0.038440336 0.023088435 0.10519087 0.108753555 0.05644628
0.0586805 0.032479167 0.104327165 0.012567444 0.12257455 -0.02249051 -0.09784678 0.07043261
0.071260534 -0.012138643 0.12608305 0.020902967 0.05343097 0.115453765 0.06365337 -0.017914845
0.026479207 -0.019404266 0.05298186 0.12928423 0.008951563 -0.052217826 0.11609074 0.09268345
0.18704729 0.11335134 -0.03794969 0.047278453 -0.037981305 0.086055465 0.015863258 0.06475664
0.08681611 0.03610396 -0.042265575 0.058667477 0.018354932 0.10678136 0.047818508 0.10459197
0.0039163865 -0.00015921556 0.062192455 -0.02458194 0.0087868655 -0.04433458 -0.077443324 0.043909896
0.019149808 0.18822308 -0.036363065 0.14984505 -0.077793665 0.03875131 0.07901025 -0.04251453
0.30696917 0.28697276 0.32227725 0.3109889 0.32456565 0.16917947 0.3670614 0.4682467
0.20502986 0.3430194 0.3687828 0.37365848 0.23147137 0.100950554 0.28536007 0.35127386
0.3202779 0.31139842 0.2863616 0.20153022 0.33172837 0.23788281 0.2601662 0.24738692
0.26921883 0.15871558 0.3815836 0.45155233 0.23713659 0.2912055 0.11552787 0.42968178
0.12742758 0.43609262 0.18609469 0.21888536 0.4871326 0.110996574 0.1784436 0.2507902
0.13108492 0.02521371 0.22046459 0.21844167 0.38074636 0.5007806 0.16043395 0.053725112
0.5898715 0.2821182 0.07616599 0.24726646 0.18088536 0.46059245 0.25165775 0.69791555
0.30249974 0.2094597 0.45461556 0.22482394 0.0019547762 0.14579055 0.5165207 0.12288693
0.34206653 0.03371347 0.12060555 0.12766808 0.2027481 0.22077397 0.20173608 0.29121092
0.15410346 0.0461103 0.23204595 0.2293897 0.46471524 0.33728403 0.10719604 0.4864797
0.27418828 0.1974822 0.3426598 0.37648022 0.122748606 0.1735027 0.15624961 0.32014862
0.20907584 0.06719638 0.18337199 0.18889251 0.25208595 0.17419983 0.1769026 0.2549685
0.49359006 0.13356929 0.08558514 0.5640102 0.10012963 0.14334051 0.505687 0.23361613
0.6099242 0.37055707 0.29227558 0.27178124 0.17632908 0.2113513 0.28959918 0.24500619
0.19335152 0.21376413 0.29176402 0.13097715 0.15238126 0.3061859 0.18087971 0.34605747
0.3813677 0.19478737 0.13982 0.4728513 0.106119104 0.109403394 0.096220955 0.0055713756

rnn.bias_hh_l0 f4 [384]
00000000: 7683 cfbc 598f 563d e009 453d d1ac 99bb
00000010: 729d 173e 9ffe dc3d 6a0e b73d 006c f73d
00000020: 716c 523d c465 c23d 6334 a33d 7cda c33d
00000030: 1799 933d 532e 6ebc 4130 ac3d afa0 e4bc
00000040: 22d0 d33d b301 bf3c 56bd 75bd 1669 3ebd
00000050: b504 5d3c fb6b 11bc 6912 21bd 95f7 4f3c
00000060: 3b9a b13b 0c27 a83d 0aeb 133d d786 08bd
00000070: 7a4b 84bd 1bb3 223e 6d05 e83c f5e3 b83d
00000080: a379 1a3c 0d8d 293e 1269 43bc d2f9 f33d
00000090: 0ba6 b43c 9d26 b6bc f10b 9c3b a436 ab3d
000000a0: bf23 2d3c a016 a73d a7cd ad3d 4925 dcbb
000000b0: 49fb 3c3c f4be 8a3c 6125 23bd 7bb9 863d
000000c0: f297 683d 4a8d 663d 5c85 adbd f74c 7b3d
000000d0: 38be 5c3d 6d26 763d 1c2a 743c 836f a83d
000000e0: ac98 d03d 34d2 543d 7b1e 623d efbc 9e3d
000000f0: 5143 fdbb 1410 083e 07fe d23d d461 913d
00000100: 152f 203d 49a1 053d 1cda 163e 5695 39bc
00000110: f741 febc 0eab 1f3d 3d39 833d 466e a1bd
00000120: fa9d 353c 4ac7 d53d 7448 753d 9081 4f3d
00000130: df83 5cbb a5a1 2e3d 561e cfbb 2456 60bc
00000140: c74c 873d d8f9 d7bc be33 213d cea5 babd
00000150: 90d1 e93d e389 153e 4720 ccbc 6723 053d
00000160: 482d 543d 6a0e 483d 609b 9c3d 6e54 80bc
00000170: d24f 403d ae84 50bd ea8b 23bd 8ac0 be3d
00000180: 65a7 8e3d 2618 5b3d 5021 5ebc 720f 883d
00000190: 09b6 1fbd 040f cfbc 0b61 15bd 14db c63b
000001a0: b913 e63d a5ca 493d e312 43bd 7ad4 ea3c
000001b0: 93e8 f73d aaf4 2ebd 6dd1 a73d e463 6f3d
000001c0: ae48 b5bc 7ecc c73c 066c 05bd 893c 3dbc
000001d0: d17b e23d baad ce3d 73da 9abd 8765 c23c
000001e0: 895b d83c cb3b bc3d 716a ab3d 2b92 103e
000001f0: 831f 4f3d 6498 063d 8b01 373d f582 453d
00000200: 67b3 a83e e718 b03e 128a b33e 14ac c83e
00000210: 8aea 7d3e 13eb d23d e056 cf3e 93e8 073f
00000220: e0d4 053e d520 7e3e 2098 ae3e 4f31 ce3e
00000230: 2b7f 943e 12d8 ab3d 39ad 233e 71a4 c33e
00000240: 5b2e 933e 80dd c93e f04b 393e 3d1f a23d
00000250: fed9 a53e 67b7 293e 7b0b 203e b8ad 9d3e
00000260: 9fdb 9d3e 3e3d 923e afc6 cc3e b011 e43e
00000270: 05a9 8f3e 3e07 af3e 3f14 8d3d 9b67 bd3e
00000280: 694e 213d 012f be3e fd27 563e 3fba bd3d
00000290: 5b24 013f a011 ad3d 92db 263e dcea 403e
000002a0: efa1 413d ddb4 e73c d9fd 9a3e 7ca2 863d
000002b0: 0c26 b73e 71e9 103f 5770 e53d 7f76 3e3e
000002c0: f9b9 173f 8be3 a43e c2a9 fe3d bb49 c33d
000002d0: 3993 f83d 40d8 ef3e 541c 513e 1f3c 3f3f
000002e0: d639 633e 7216 663e 81c3 a53e 3f5f 023e
000002f0: d063 ea3d 41cb 093e 09c7 db3e 0ce3 4d3e
00000300: 4468 883e 87de c03d c51d 873e 6791 fa3d
00000310: 7475 f93d 2321 2e3e f3fb 133e 0930 913e
00000320: 0416 0e3e 9707 813d a84f 773e 4462 4b3e
00000330: 6bba c53e ce06 bb3e b994 653e 859b 123f
00000340: 8574 713e a797 8a3e 1425 633e 9f75 943e
00000350: 4704 e53d 4729 5d3e f438 5d3e 65c2 b33e
00000360: 6e8a f93d 58e2 833d 4fb2 3a3e 3c47 163e
00000370: 0e92 a43e 3b15 743d 8fbe 313e 40a4 933e
00000380: 0a81 bb3e ffdb 2d3e 7880 2e3d 5e13 0f3f
00000390: df07 113e 785f b73d 47d9 003f a289 783e
000003a0: 5b9c de3e b23d bf3e f6e1 953e 1c31 9a3e
000003b0: 0c36 363e 8cc3 9f3e 5073 8f3e f2bc aa3e
000003c0: e1be 763e d852 113e 38bc 1e3e 4e11 933e
000003d0: db2d 153e 9492 963e b101 333e 0637 933e
000003e0: c33d d23e ae73 833e c8db 8a3e 4781 b93e
000003f0: 5bec d23d 7d6c 6e3e 13e1 013e ec9b f23d
-0.02533124 0.0523828 0.04810512 -0.004689791 0.14806154 0.107907526 0.08938296 0.12081146
0.05137295 0.094920665 0.07968976 0.09563157 0.07206934 -0.014537412 0.08407641 -0.027908651
0.103424326 0.02331624 -0.059995018 -0.046486937 0.013489892 -0.008875842 -0.039324198 0.0126933055
0.005419997 0.082105726 0.036112823 -0.03333172 -0.064597085 0.15888636 0.0283229 0.09027854
0.0094284145 0.16557713 -0.011926906 0.11912884 0.022051832 -0.02223521 0.0047621657 0.08360031
0.010567605 0.08158612 0.08486491 -0.006718312 0.01153452 0.016936757 -0.03983057 0.06578346
0.05678553 0.056287088 -0.08472702 0.061352696 0.053892344 0.06009524 0.014902618 0.08224394
0.1018537 0.051958278 0.05520485 0.0775088 -0.007728972 0.13287383 0.10302358 0.07098737
0.0391074 0.032624517 0.1473164 -0.011327108 -0.031037314 0.03898149 0.06407402 -0.07882361
0.011085028 0.10438402 0.05988355 0.05066067 -0.0033647937 0.042634625 -0.006320755 -0.0136924125
0.06606441 -0.026364252 0.039355986 -0.09113656 0.11416924 0.14603381 -0.024917735 0.032504465
0.051800996 0.04884187 0.07646823 -0.01566526 0.046951123 -0.050907783 -0.039928354 0.09314068
0.06965522 0.053489827 -0.013557747 0.06643571 -0.03899196 -0.025275715 -0.0364695 0.0060685966
0.112342305 0.049265523 -0.047625434 0.02866577 0.12104907 -0.0427138 0.08194242 0.058444872
-0.022129383 0.024389502 -0.032573722 -0.011550077 0.11058772 0.100917295 -0.07561197 0.023730053
0.026410835 0.09191092 0.083699115 0.14118259 0.05056716 0.032860175 0.044679206 0.048220593
0.32949373 0.34394 0.35066277 0.39193785 0.24796501 0.10298743 0.40495968 0.53089255
0.13069487 0.24817212 0.34100437 0.40271994 0.2900327 0.083908215 0.15984048 0.38211396
0.28746304 0.39426804 0.18095374 0.079161145 0.32392877 0.16573869 0.1562938 0.307966
0.3083162 0.2856235 0.39995334 0.44544744 0.2805864 0.34185213 0.06888627 0.36993107
0.03938142 0.37145236 0.20913692 0.09264039 0.504461 0.08450627 0.16294697 0.18839592
0.047273573 0.028284485 0.30271795 0.0657396 0.35771215 0.56606203 0.11203068 0.1859989
0.59268147 0.32204852 0.124347225 0.09535547 0.121374555 0.46844673 0.20420963 0.7470111
0.22190031 0.224695 0.3237572 0.12731646 0.11444819 0.13456441 0.4292529 0.20106143
0.26642048 0.09417444 0.263899 0.122347645 0.121806055 0.17004828 0.1445158 0.2835696
0.13875586 0.06300276 0.2415148 0.19861704 0.38618788 0.3652863 0.22420014 0.57268554
0.23579605 0.27068827 0.22182113 0.28995988 0.111824565 0.21597777 0.21603757 0.3510925
0.121846065 0.06439656 0.18232082 0.14675611 0.3214268 0.05959056 0.17357849 0.2883625
0.36621886 0.16978453 0.042602986 0.55888927 0.14163159 0.08953756 0.5033154 0.24271253
0.43478665 0.37351757 0.29273957 0.30115592 0.17794055 0.31203878 0.28017664 0.3334728
0.24096252 0.14191759 0.15501487 0.2872414 0.14568274 0.29408705 0.17481114 0.28752917
0.41062745 0.25674194 0.27120805 0.36231443 0.102989875 0.23283572 0.12683515 0.11846146

dense.0.weight f4 [256, 128]
00000000: 6d26 95bd 4e24 88bd 3681 7cbd dff6 ff3a
00000010: cc2e cabd 98f9 883c a566 cfbc cf5d 3e3d
00000020: 905a d9bc 8b98 44bd 67f7 a33d 20f4 1ebd
00000030: 1d87 06bd df26 973d dc08 d4bc 9614 a63d
00000040: eb84 36bd f32c d8bd bec5 7e3b 7661 17bd
00000050: 9af7 993d e303 8d3d becd 493c c44d ad3c
00000060: 9180 c7bd c502 933d 1112 333d 892e bdbd
00000070: 30fe 79bd 2e01 443d e9b8 963b 6ca5 42bd
00000080: 6a0d 89bd b485 143d f419 4f3d 0d15 ce3d
00000090: 2e12 c9bc ea9a 103d 1c24 93bd 9b8e 1d3d
000000a0: 3523 a4bd fc22 f73c f78f 9bbd 5fc5 a33c
000000b0: 34e3 aa3c 4d8a 28bb c87b bc3d 98d9 083d
000000c0: 9583 ed3c 00cc 6bbd cfbb f3bc 5996 893d
000000d0: 30f2 c1bd 067b 51bd 61a0 31bc 9cba 65bd
000000e0: 1e62 0a3d d797 2dbd e1aa bebd ca14 9dbc
000000f0: cc8f 1fbd 15ab e83c 119f 87bd d101 fdbc
00000100: 6f1b adbd 3a2d e4bb bfb4 853d 7201 1fbc
00000110: 4aa7 aabc a43a 3bbd cb02 20ba 4956 6abb
00000120: 74a4 3cbd 6422 b13d be77 a63d fa30 4c3d
00000130: 307b a7bd 8c7b 253d a456 ba3d f9e1 6cbc
00000140: a0c7 b53d 002f 8f3d 6d31 bd3d 1a48 a03c
00000150: 4a3b 5c3d c933 183d 9c63 a7bc 3f8f 433d
00000160: 77b0 123d da31 813d 9e81 bbbd abec 19bd
00000170: 036a c5bd 3311 5dbd b2e5 a7bb f746 483d
00000180: a68b 47bc 1c9f 6f3d 0ba9 a73d 25cb 53ba
00000190: 599a 5abd d384 8fbc 04ea 9cbd 680a 6bbd
000001a0: a384 08be 6ee0 9c3d e2ce 2fbd 7cf6 793d
000001b0: 0c84 59bc c80d d13c 4edd dbbd d647 17bd
000001c0: 84b2 9d3d 0c10 64bd 2fcc 9ebc b765 c0bb
000001d0: 1437 c13d 6621 44bd e0a2 18bd 9896 45bd
000001e0: eb74 a4bd c19b c5bc 7364 b63c 9519 013d
000001f0: 87c0 15bd 9a28 b6bd fd83 74bc d179 9bbc
00000200: ad06 aebd f782 d2bd fec8 10bd 44d4 8cbd
00000210: 959f efbd c2ea b63d 3a35 673d 0c5d 2fbb
00000220: 1e83 2bbc af35 bb3c 9bba cdbb 0e96 08bd
00000230: 2a09 a73d feed e1bd bac5 0cbc 7c0d f53d
00000240: cfe8 03be c0e7 5bbd 8f6c 3abd deeb 713d
00000250: 2982 473d 6721 a93d 432c 0bbd 50ef e1bc
00000260: 0900 f0bd bc41 3b3d c2e1 883d 4832 8dbc
00000270: 3196 ad3d 0e86 bd3d 2700 c3bd 3141 a1bd
00000280: 750a 913d 1b81 4c3d 724d dfbd a64f d0bd
00000290: abf6 22bd b258 bbbb 7122 643c d1d1 79bd
000002a0: dcea ad3d ac2e 12bd 4757 9abd 3cba c83d
000002b0: 7cd7 97bd a2d0 86bd db14 d5bd 0246 a43d
000002c0: 51c7 b0bd d6e8 9b3c 86da b7bd f280 943d
000002d0: c774 9dbc d3e7 f93c 1b83 1d3b c214 bbbd
000002e0: 1003 673b f066 0c3e 4090 3dbd 5651 47bd
000002f0: afe3 003b 787a b2bb 8682 883c f252 283c
00000300: 1a07 0bbd 890f 9abd 3ecb fabc 215d 2e3d
00000310: 0eea 003d 15e2 9a3d 63e1 b23d 455b 0e3e
00000320: b9ef cfbd 4014 54bd 0c5a 013d bab8 90bd
00000330: b6e2 853c 0087 e33b 07b7 e83c 0f07 b9bd
00000340: 75a4 8a3d 996b 89bd 46cd 853d 5b3a c63c
00000350: daa2 aebd 910d 403d a9bd 5abc c12c c5bd
00000360: cea5 05bd 5da9 22bd 4da6 33bc 14ef 6b3d
00000370: cdad a6bc 812d b83d a0c9 3f3d e7f4 873d
00000380: 779a 0fbd 77c5 b1bc e647 653d 83ad 73bd
00000390: 4f05 763d e41c b03d 321c 0fbc 04bb 1dbd
000003a0: 0878 713c 8bfc 81bd 57ba c7bd 2306 fc3d
000003b0: 2177 813d 8b6c fdbd 330b 3bbd 7cce 983d
000003c0: 0eeb 363d 7fd5 2b3d bcfa a53d 570d 873d
000003d0: 47d1 0cbd 6385 973d 7656 593d ee85 463d
000003e0: d927 83bd b8d7 b83d 643a 01bd 0f37 e4bd
000003f0: 27f2 96bd c249 8f3d 2217 6f3d b40d b5bd
-0.0728272 -0.066475496 -0.061646663 0.0019528529 -0.09872207 0.016720578 -0.0253175 0.04647618
-0.026532441 -0.04799704 0.080061726 -0.038807034 -0.032843698 0.07380461 -0.02588313 0.08109395
-0.044560354 -0.105554484 0.0038875188 -0.03695818 0.075179294 0.06885507 0.012317119 0.021155246
-0.09741319 0.071782626 0.0437184 -0.092373915 -0.061033428 0.047852688 0.0045996797 -0.04752104
-0.06692012 0.03626032 0.05056186 0.10062609 -0.024544802 0.035303988 -0.07184622 0.038466077
-0.08014528 0.030168049 -0.075958185 0.019991575 0.020860292 -0.00257172 0.09203297 0.03341064
0.028993407 -0.057567596 -0.02975264 0.0671813 -0.09470022 -0.051142715 -0.01084146 -0.056086168
0.033784978 -0.042381134 -0.09309936 -0.019174952 -0.038955495 0.02840189 -0.066221364 -0.030884655
-0.08452498 -0.0069633992 0.06528615 -0.009704934 -0.020831723 -0.04571022 -0.0006103932 -0.0035756996
-0.046055272 0.086491376 0.08128308 0.049851395 -0.08177793 0.040401027 0.09098557 -0.014458173
0.08875966 0.069913864 0.09237943 0.01956563 0.05376748 0.03715876 -0.02043324 0.047744032
0.03581282 0.063083366 -0.09155582 -0.03757922 -0.09639361 -0.05397148 -0.0051238174 0.048895802
-0.012179291 0.058501348 0.08186539 -0.0008079282 -0.053369854 -0.01751939 -0.076618224 -0.05738297
-0.13331847 0.07659994 -0.04292191 0.06102608 -0.013276111 0.025519267 -0.1073557 -0.036933742
0.07700065 -0.055679366 -0.019384472 -0.0058715004 0.094343334 -0.047883414 -0.037264705 -0.04823932
-0.08030113 -0.02412212 0.022264695 0.031518538 -0.03656056 -0.08894463 -0.014924047 -0.018978985
-0.08497367 -0.10278886 -0.03534793 -0.06876424 -0.1170036 0.08931495 0.056447245 -0.002675834
-0.0104682725 0.022852747 -0.0062783486 -0.03334623 0.08156045 -0.110317215 -0.008592064 0.119654626
-0.12881778 -0.05368781 -0.045513686 0.05906283 0.048708115 0.08258324 -0.03397776 -0.027579933
-0.11718757 0.045716986 0.06683685 -0.01723589 0.08475912 0.092540845 -0.095215134 -0.078737624
0.07082073 0.049927812 -0.109034434 -0.10171442 -0.039786022 -0.0057173604 0.013924227 -0.060991112
0.084920615 -0.03568904 -0.07536178 0.098011464 -0.07414147 -0.06582762 -0.104043685 0.080211654
-0.086317666 0.019031923 -0.08977227 0.07251157 -0.019220723 0.03050605 0.0024034444 -0.091348186
0.0035249628 0.13711143 -0.046280146 -0.048661552 0.001966696 -0.0054467283 0.0166638 0.010273682
-0.03394232 -0.07522494 -0.030614492 0.042569283 0.031473212 0.07562653 0.08734395 0.13902004
-0.10153145 -0.051777124 0.031580016 -0.07066484 0.016343456 0.0069435835 0.028407587 -0.090345494
0.06769649 -0.06709976 0.065332934 0.024197748 -0.08527155 0.046887938 -0.013350883 -0.09627677
-0.032628827 -0.0397123 -0.010964942 0.05760105 -0.020346547 0.08993054 0.046823144 0.06638508
-0.03505942 -0.021700604 0.05597677 -0.059491646 0.060063656 0.085992604 -0.00873475 -0.03850843
0.01473809 -0.06346997 -0.097523384 0.12305858 0.0632155 -0.123742186 -0.045664977 0.07461259
0.04465776 0.041951653 0.081044644 0.06594341 -0.03437927 0.073984884 0.05306097 0.04846757
-0.06404085 0.0902552 -0.031549826 -0.11143314 -0.07370406 0.0699649 0.05837167 -0.08840504

dense.0.bias f4 [256]
00000000: acb3 2fbd f47f 763d f18b 12bd 6ca7 92bc
00000010: e718 45bd ed7a 693d b1c7 2ebd 9048 813c
00000020: 3ba1 5abd 3b64 78bd c22e 143d d199 a73d
00000030: 41fc debd f099 b23d 3e7f fb3c 8d95 173d
00000040: b7d3 a73c 68cb 213d 373a 11bc 1037 a4b9
00000050: e647 b4bc 9d2d 5e3d 4359 89bb 4b7f b9bc
00000060: 9f1b 0dbc 93f6 953d c0f5 01be 5c25 333d
00000070: bf24 26bd a4a8 ba3c 347c 0abe 6f3e d63d
00000080: a444 ce3c 691f b73c fde3 bc3c a9ca 78bc
00000090: d14a 253d a072 c1bd cd58 84bd ddf5 d13c
000000a0: 93a7 4a3a c49b ff3b a587 cc3d 7cda 7dbd
000000b0: c3ca a83d 0706 093d 0abe c1bd 9bbb ca3d
000000c0: ea94 e63c dc7d afbd eadc c53d f530 81bd
000000d0: a468 b23d 6eba e6bb 8413 9e3d 3ac0 753d
000000e0: 25a9 873d 48ec 393d 4e91 38bd fc73 943d
000000f0: 609b e83b 4160 30bd c362 033e 657f 993c
00000100: 9aaa 3ebd 0e00 1d3d b699 27bd 1c4a 563d
00000110: e8bb a9bd 3f78 423d 7121 0dbe c171 903d
00000120: 77ce 393c 3dbf 2d3d 825e 533d 756e ddbc
00000130: 03f5 d53c 2a6a 40bd 4c99 d43d c86a 40bc
00000140: b004 593d ce28 8c3d 44a1 2e3c 3a5e ecbd
00000150: ffb3 2b3c 6d18 45bd 4b3f 093d 33b5 7bbd
00000160: 45fa c6bd 6959 af3b c7aa 8ebc 8486 29bd
00000170: 718f 59bd 51d0 4a3d 1057 093a a390 8f3d
00000180: e2c4 c13d e846 073e 3a8d 7d3d 909a 243d
00000190: a522 cebc 10a8 97bd 328b a73b 49d1 c33c
000001a0: 6d5e 55bd 2b00 4d3d 1283 b83c e86f 4f3d
000001b0: f2c0 74bc 888b c73d 5d7d 073e 981e 833c
000001c0: 462b a23a 4260 803d 2244 63bd 2bb8 05be
000001d0: a72d ab3d 94a1 90bc 64c2 82bc 22f9 0a3e
000001e0: 59ae 063d 9e0f 193d a3bd 433d 7a6e 4ebd
000001f0: 52e1 993d f02f fc3c 5663 973d 3294 05bb
00000200: e2fa 183d 4efb 3ebc 5b96 a1bc 74f1 73bd
00000210: d08b ad3d f51d 00bc fba4 2dbd f9eb fb3b
00000220: 1cba eb3b 00e6 913c cdb4 1d3c b550 033e
00000230: de48 8cbb 0b88 0dbb 286e 193d 1dca 62bd
00000240: 5dc3 8a3d 66bf bf3d 3ad0 a43d ecfc 00be
00000250: 7043 093c 43d2 983d c631 9b3d 9342 90bd
00000260: 4c9e 6bbd 76ad c63d d152 6ebc 84dd a13d
00000270: f69e 0cbe 779d b73d 80ff 963d 17e6 c63d
00000280: 1b7e 9e3c 53e3 d8ba eab9 713d 6e6e 473d
00000290: bc3e 32bd 8def 08bd 4b91 ffbb 7e94 59bc
000002a0: acd9 7b3d 8787 1fbc c6cb b13d f18b d4bd
000002b0: f7ee 4e3d c621 2cbd 46d6 8d3d a8b2 04bb
000002c0: d06d 0dbd ca98 cb3d 045d ab3c e964 d6bc
000002d0: c644 be3c 1ce9 973d b17b e5bc 68f2 65bd
000002e0: c5fc a93d caab 50bc 5cc2 833d ad9d 553d
000002f0: b83b dabc bac0 973a d108 19bc 5e78 4abd
00000300: f7b8 57bc 2daa 823d 9a32 b23d 3987 b03c
00000310: a325 e13c 3456 0fbb 1253 903c f0f5 673c
00000320: ed6e 45bc d5bf c43d 60ed 633d 3d37 65bc
00000330: 1255 c4bb 08ff 83bd 0602 94bd a489 03bb
00000340: 8bd1 763d 1806 bb3c 6027 b63d d344 783d
00000350: 93a2 043e 6902 473d 110a d3bb 542b 9abb
00000360: ff97 0a3c af69 1b3d ef44 943d 3a95 ae3d
00000370: aff6 c33d 7ae9 473d 5a22 983d 76d3 a13d
00000380: fbb8 233d bf5a 763d f019 e93a c5e7 dfbc
00000390: 4a70 673b df94 153d 1436 af3d 1f1c 42bd
000003a0: bf79 de3c 155e 213d 51a4 b53c 3bc7 3a3b
000003b0: 21fa 1a3d e0aa 99bc 6f7f b93d 92ce 39bd
000003c0: c580 ca3c 8fc9 fa3d 567a bfbd 8fb3 a7bc
000003d0: 0425 ad3c 4570 103d 0f49 bdbd 5a0a d53c
000003e0: 85af f13b 2285 0ebc 6ae6 d43d c4a8 a13d
000003f0: ae1c a53c b56e 8c3d 8ea4 de3b b341 ef3c
-0.042895958 0.06018062 -0.03577799 -0.017902099 -0.04811945 0.057001997 -0.04267091 0.01578167
-0.053376418 -0.060642462 0.036177404 0.08183635 -0.10887957 0.087207675 0.030700322 0.037007857
0.020486696 0.039500624 -0.008863977 -0.00031321542 -0.02200694 0.05424272 -0.004191549 -0.022643706
-0.008612542 0.07322421 -0.12691402 0.0437368 -0.040562388 0.022785492 -0.13523942 0.10461127
0.025179215 0.022353845 0.023057932 -0.015185037 0.040354554 -0.09445691 -0.0646225 0.025629932
0.0007730659 0.007800551 0.0998681 -0.06197594 0.08241799 0.033453014 -0.09460075 0.09899064
0.02814718 -0.08568928 0.09661277 -0.06308166 0.08711365 -0.007041267 0.07718566 0.059997775
0.06624059 0.04539135 -0.04506045 0.07248685 0.0070986003 -0.043060545 0.12830643 0.018737504
-0.046549417 0.03833013 -0.040918075 0.05231677 -0.082877934 0.047477957 -0.13782288 0.07052947
0.011340729 0.042418707 0.0516038 -0.02703021 0.026117807 -0.046976246 0.103808016 -0.011744209
0.052982986 0.068437204 0.010658566 -0.1154141 0.010479926 -0.048118997 0.033507627 -0.061452102
-0.09715704 0.0053512347 -0.017415417 -0.04138805 -0.053115312 0.049515072 0.00052391086 0.07010009
0.094613805 0.13210642 0.061902262 0.040186465 -0.025163004 -0.07405102 0.005113029 0.023903506
-0.052092005 0.05004899 0.022523437 0.05064383 -0.01493858 0.0974341 0.13231416 0.0160058
0.0012372516 0.0626836 -0.0554849 -0.13058536 0.08358317 -0.017655171 -0.015961833 0.13571599
0.032881115 0.03736841 0.047788274 -0.050398327 0.075136796 0.030784577 0.07391994 -0.002038252
0.037348635 -0.011656595 -0.019725015 -0.05955644 0.08473933 -0.007819642 -0.042393666 0.0076880422
0.007193817 0.017809868 0.009625626 0.12823756 -0.0042811474 -0.002159598 0.03745857 -0.05536853
0.06775544 0.09362678 0.080475286 -0.12596482 0.008377895 0.07461979 0.07577853 -0.07043948
-0.05752401 0.09701054 -0.014546112 0.07903579 -0.13732514 0.08965581 0.073729515 0.09711855
0.019347241 -0.001654724 0.059015192 0.0486893 -0.04351686 -0.03343158 -0.0077993027 -0.013280032
0.061486885 -0.009736902 0.08681445 -0.10378254 0.050520863 -0.042024396 0.06925635 -0.002024809
-0.034528553 0.099412516 0.020918377 -0.026171165 0.023226153 0.07417509 -0.028013082 -0.05613938
0.08300165 -0.01273627 0.064335555 0.052152324 -0.026639804 0.0011577823 -0.009340481 -0.049431197
-0.013166658 0.06380115 0.08701058 0.021548854 0.027483767 -0.002187145 0.017617736 0.014157757
-0.012050373 0.096069016 0.0556463 -0.013990221 -0.0059915865 -0.06445128 -0.072269484 -0.0020071054
0.06025843 0.022830054 0.08894229 0.06061251 0.12952642 0.048586283 -0.006440409 -0.004704872
0.00845909 0.037942585 0.072397105 0.085245565 0.095685355 0.048806645 0.07428427 0.07901661
0.039971333 0.060145136 0.0017784219 -0.027332196 0.0035314732 0.036518928 0.085552365 -0.0473901
0.027157662 0.039396364 0.022173079 0.0028500098 0.037836198 -0.018758237 0.09057509 -0.045363016
0.024719605 0.122454755 -0.093495056 -0.020471362 0.021135814 0.03526332 -0.092424504 0.026005913
0.00737566 -0.0086987335 0.103955105 0.078935176 0.020155277 0.06857053 0.006794519 0.029206133
